app/model.tflite (tflite, 153452 bytes, 8 tensors)

dense_1/bias f4 [10]
00000000: a66c 563d 612b b43c 5bd2 f7bc dceb f83c
00000010: e8f6 c1bb 063d 5dbd 4ba3 7cbd 7f15 45bd
00000020: 50fd 9d3d 3435 2dbb
0.05234971 0.02199334 -0.030251672 0.030385904 -0.005919326 -0.054013275 -0.061679166 -0.048116203
0.07714331 -0.0026429417

dense/bias f4 [128]
00000000: 1846 98bc 2f2f 01bc ccc1 32bd e4d8 e6bc
00000010: 9aed 803d 57c3 2a3d a64a b0bc 3865 1ebd
00000020: a6b4 503d a18c 663d c063 a6bc 0beb 5cbc
00000030: 5cf5 a9bc e042 1cbc a704 8dbc 0ce2 d6bc
00000040: 9935 bb3a 09f6 853c d1ca 42bd ca1e 6ebc
00000050: f557 653d 8f31 c53c af8e d3bb 621a 2f3c
00000060: 271b 2bbd 3176 4dbd 6291 103d b32e 03bd
00000070: f44f da3c 8a7b 953d 4c27 f73c 3c40 aa3d
00000080: 42d3 34bc 984f 0ebd 89be 1e3d 8672 71bd
00000090: 0cad 6ebd 2683 ec3c 9b3c 60bc 807a a8bc
000000a0: c08a b23b fd9b 923b 7ad8 00bc 857b 02bd
000000b0: ef7c 8b3c e6a7 85bd 45f9 0b3c 0e9d d53c
000000c0: c104 5abc bee1 59bd 8e6d 343d 3ed0 823d
000000d0: 966c 5cbc 3338 aabd 9959 063d 4aa0 69bc
000000e0: 6fe7 25bd bd75 2cbd 8c72 993c 5902 783d
000000f0: 1869 f73b 1a99 843c 39c8 523c 1010 9fbc
00000100: 1816 b53c f0f9 0cbc 457d 2ebc 865f 0bbc
00000110: d839 a2bc 388c 833c 0079 a7bb 25ff 44bd
00000120: 51f3 693d fcf7 0dbc 3d86 10bd 1aa2 bfbb
00000130: 691c 15bd 4026 cfbc 3df9 f23c 5a6d 553d
00000140: ed37 a5bc 7663 ba39 232a 26bd 85fa 8ebc
00000150: 4ec3 1ebd 6843 acbc bbdc ecbc a972 cc3c
00000160: 4ce5 b7bc 681f 6abd d58b 623c b4c8 453c
00000170: f0d4 93bb db7e 13bb 2b19 e2bc 95f5 acbc
00000180: 7a3e d2bc 9ff4 233a bf0f e6bc 9d55 9eba
00000190: 2dd2 6dbc 40bd 5ebd d479 7c3c 8d19 a3bc
000001a0: 7888 2e38 56eb ce3c 027a 043d 9862 3a3c
000001b0: 3f39 b4bc 04b4 0bbd 3a0e a03c 47ee b7bc
000001c0: ca74 c2bc 401c fabc a994 1ebd e698 933c
000001d0: 0285 0cbd 55ee 13bd dabd 063b 8ecf 98bc
000001e0: 43cb 13bc 625c f23c d394 48bd 5c5f 26bc
000001f0: 8bef 6ebb b459 333c 6675 e2bc bbd9 8abd
-0.01858811 -0.007884785 -0.04364185 -0.028179593 0.06295319 0.041690197 -0.02151997 -0.03867075
0.05095353 0.056286458 -0.020311236 -0.013483773 -0.02074688 -0.009537429 -0.017214132 -0.026230834
0.0014282941 0.01635267 -0.047556702 -0.014533708 0.055992085 0.024071483 -0.006456218 0.0106874425
-0.04177394 -0.050161544 0.035294898 -0.032026958 0.026649453 0.07298954 0.030170105 0.08313033
-0.011036696 -0.034743875 0.038755927 -0.05894711 -0.0582705 0.02887113 -0.0136863245 -0.020566225
0.005448669 0.0044741617 -0.007864112 -0.03185608 0.017027346 -0.06526165 0.008543317 0.026075866
-0.0133067975 -0.0531938 0.044049792 0.06387375 -0.013453623 -0.083115004 0.03280029 -0.014259407
-0.040503915 -0.04210447 0.018731378 0.060549114 0.00755037 0.016186286 0.01286512 -0.019416839
0.022105262 -0.008604512 -0.010649984 -0.008506661 -0.019802973 0.016058072 -0.00511086 -0.048094887
0.05711681 -0.008665081 -0.03528427 -0.0058481814 -0.036404047 -0.025286794 0.029659862 0.05210624
-0.020168269 0.0003555079 -0.04056753 -0.017453441 -0.038760476 -0.021028236 -0.028913846 0.024957018
-0.022448204 -0.057158858 0.013827284 0.012071777 -0.004511468 -0.0022506032 -0.027599892 -0.021113196
-0.025664557 0.0006254408 -0.02808368 -0.0012079958 -0.014515442 -0.0543797 0.015409905 -0.019909644
4.161193e-05 0.025258701 0.03234292 0.011376046 -0.021999953 -0.034107223 0.019538034 -0.022452487
-0.02373733 -0.030531049 -0.038715992 0.018017244 -0.034306534 -0.036115963 0.0020559938 -0.018653657
-0.009020629 0.029585067 -0.048970055 -0.010154571 -0.0036458697 0.01094668 -0.02764387 -0.0677981

conv2d_1/bias f4 [16]
00000000: 4575 68bd 47cb 22be fd7a cd3c 0b1d 54be
00000010: 719d c33b 87b2 8f3d e6f8 a4bd d84a 4d3d
00000020: bbb8 c5bd 6b98 a13c 462b 45bd 0f1d 513c
00000030: 0c5e 9fbd 1b82 2e3d d559 8c3c 1a8f ecbd
-0.056752462 -0.15897857 0.02508306 -0.20714204 0.005969696 0.07016473 -0.08055286 0.050120205
-0.09654375 0.019725999 -0.048136972 0.012763276 -0.0778161 0.042604547 0.017132679 -0.11550732

conv2d/bias f4 [8]
00000000: 5f9e 1c3e e849 bdbc 1b5a 65bd 55ed 1cbe
00000010: fefc a93c ab92 43bb 9aaa fabd eea0 f9bd
0.15294789 -0.02310653 -0.055994134 -0.1532491 0.020750519 -0.002984206 -0.12239571 -0.12188898

sequential/dense/MatMul f4 [128, 256]
00000000: 2197 bd38 0ef1 92bd c438 c5bb 7c94 943c
00000010: 7709 aa3d 18be 26bd 7080 f03d 3a97 b6bd
00000020: eb6a c83d ac96 6c3b d38c e13d 3dd4 74bc
00000030: a6ce 203d 6b6a fbbd ba22 ccbd 587c f53c
00000040: c667 0dbb 4367 24bb 718c 833c 31e1 c6bb
00000050: dc16 c0bc 61c0 ae3c 79fe 42bd 3647 fbbd
00000060: 08a6 5fbc 7860 62be 0935 373d ea2c d8bd
00000070: 8fd8 34bd 0baa 943d 7883 54be 9cc1 173d
00000080: f6ae 25bd 9f7a 6abd 5a1f b139 6010 20bd
00000090: 9444 ddbd 3343 4bbd 35f4 663d 42c1 44bd
000000a0: 686c 11be efc1 863d b8c5 1fbe fcf3 af3d
000000b0: 9e0d 9a3d 8757 1dbe e48d 86bd 2032 21be
000000c0: 0eb4 babd 3e51 36bd 8620 f2bd f21e f6bd
000000d0: 4297 d83c d766 0fbe 9c18 343d 0668 4f3a
000000e0: 3b6f 81bd 989e 3cbd f498 a9bd c91d d8bc
000000f0: 6d16 45bd 6c4e ec3c 399d 3ebc c734 a33d
00000100: 9916 b0bd e2ba 9dbc cbfe b9bd 88cb 093d
00000110: 0185 323d 13e4 d23d 080b b3bd 6036 c3bd
00000120: f57a 2abd e192 8a3d 1313 f6bd 85fb 553d
00000130: 092d 24bd 672d aa3d 0a21 e0bd 5dd5 1a3d
00000140: df1d a8bb 3938 bdbc e930 073a be01 23be
00000150: 1ca3 503d 514b b33d 5621 613d 70a6 b7bc
00000160: b972 c73d ba26 19be f915 9abc 1825 b2ba
00000170: ab95 d2bd b108 65bd 5292 05ba a3fc 12be
00000180: 2e2f 86bc fdad 54bd 3ad7 ad3d d8bf 843d
00000190: e910 0ebe 7058 f4bc 026a 453d 02ee f4bd
000001a0: a929 e2bc 6e58 8d3d f516 a7bc aa92 4d3d
000001b0: eb60 ddbc 858c e8bd db29 a7bd 9256 213b
000001c0: 3834 c2bd 149e c8bd 08b6 573d 3558 823d
000001d0: 1455 a13d 0244 12be 9cc9 c63d ec18 96bd
000001e0: 3819 4c3d 675f a83d c157 b0bd 273a 9f3d
000001f0: b967 883d 6a1f c6bc dddd 863d 5482 2e3d
00000200: 4152 793d 714e e73c da39 693d a40e 7e3d
00000210: 109d 8abd 6c64 c2bd ea2a 4a3d b543 b13d
00000220: 0686 c4bd 9996 62bc af6b 91bd fea1 9fbd
00000230: 3df1 2ebd 60a5 ce3d d921 3a3c 2a4d 183d
00000240: 09ae 84bd 2269 ebbc 205e a8bd 7e71 96bd
00000250: c0e8 293d f64d d8bb 17ad 43bd e388 673b
00000260: 1ae9 963d 7390 a9bd 37b3 11bc 61d4 d5bc
00000270: 29d6 9f3d f38b a5bd ced6 acbd 27d5 e93c
00000280: acff d03d 67e0 a2bd 4958 ccbc 5bda bebd
00000290: e72b 07be b99e e83c c3a5 59bd c084 dbbc
000002a0: 52c9 b23d f9f3 5d3d c398 96bd 9573 1e3d
000002b0: 0378 7f3d 64e0 113d 5470 85bd 06ba 803d
000002c0: 37cb ae3c 60a7 05be c33c 2b3c e525 983d
000002d0: 2268 fbbc 1a3b ebbc 1f5a 1ebb f5bc b5bc
000002e0: 0c5a b73d f0b5 fdbd a228 a7bd f1d8 59bd
000002f0: a45b 963d cbc8 223d 1a0e f5bd a232 bbbd
00000300: 2937 f9bd 58d2 c0bd b7e2 073e 5f96 2cbe
00000310: 47ad fdbd ed4e bdbd f32b ee3b 0e88 89bc
00000320: b3f2 edbd 7c45 3ebe adbc 1ebe 0d57 143a
00000330: 76e7 dfbc d2a5 d5bb 83ac 04be 4f94 46bd
00000340: 0395 83bb 2a76 343d 4f24 a7bc f3f6 ecbd
00000350: b312 efbd a04b 9c3c 18f9 bf3b efe9 29bd
00000360: 7c79 ccba d845 a0ba 33c6 0bbe 5c37 133c
00000370: 7638 863c 067b c1bd a741 1abb 8a59 8ebd
00000380: fefb bebd 8cfa 3fbb 3891 0abe 168a d23d
00000390: 11cc 493c 3a90 06bd 95fc 1dbe 9913 d8bc
000003a0: a257 a7bd db4a b4bd ae6c 82bd a732 24be
000003b0: 31e3 61bd 075b fdbd 4185 ffbd 27c8 083d
000003c0: 7ca9 993d e75f 0c3d c691 7cbd 84e3 e53c
000003d0: 2355 a8bd b660 17be d66f 963d deb3 b0bd
000003e0: 849a d1bd f896 c0bd cd7f 0cbe 8c40 a9bd
000003f0: 2eb1 11be 92bc 0abe 1e46 ddbb 6093 963d
9.040372e-05 -0.07174884 -0.00601873 0.01813721 0.083025865 -0.04070863 0.117432475 -0.08915563
0.09786018 0.003610055 0.11013188 -0.01494318 0.039259575 -0.12276157 -0.09967561 0.029966518
-0.0021576746 -0.0025085963 0.016058179 -0.0060693254 -0.0234484 0.021331968 -0.047605965 -0.12269442
-0.013650425 -0.22107112 0.044728313 -0.10555442 -0.04415184 0.072589956 -0.20753276 0.037049875
-0.04045006 -0.057245847 0.0003378343 -0.039078116 -0.10804096 -0.049624633 0.056385238 -0.048035868
-0.1420151 0.06579959 -0.15602767 0.08591458 0.075221285 -0.1536542 -0.06570032 -0.15741777
-0.09116374 -0.044511072 -0.118226096 -0.12017621 0.026439313 -0.14004074 0.04396878 0.0007911924
-0.06320044 -0.046049684 -0.082811266 -0.02638139 -0.04811709 0.028845988 -0.0116341645 0.07969051
-0.0859806 -0.019254152 -0.09081801 0.03364137 0.043583874 0.10297408 -0.087423384 -0.095318556
-0.041621167 0.06766296 -0.12015357 0.05224182 -0.04008201 0.08309441 -0.10943802 0.037801135
-0.005130514 -0.023098098 0.00051571295 -0.15918633 0.050936803 0.087546 0.054963432 -0.02241823
0.097386785 -0.1495618 -0.018809306 -0.0013591377 -0.10282453 -0.055916492 -0.0005095351 -0.14354186
-0.016379919 -0.05192374 0.08488317 0.06481904 -0.13873638 -0.029827327 0.0481968 -0.11959459
-0.027607756 0.06901632 -0.020396689 0.050188698 -0.027023753 -0.11354927 -0.0816228 0.002461825
-0.09482616 -0.09795776 0.052663833 0.063644804 0.078775555 -0.14283755 0.09706423 -0.07328972
0.049828738 0.082213216 -0.08610488 0.077747636 0.066604085 -0.024184901 0.06585286 0.04260476
0.06086946 0.028235646 0.056939937 0.06202568 -0.067682385 -0.0949181 0.049357332 0.08655492
-0.095958754 -0.013829851 -0.07100617 -0.077945694 -0.04271053 0.100901365 0.011360609 0.037182964
-0.06478507 -0.028736655 -0.08221078 -0.07345866 0.041481733 -0.0066010905 -0.047772493 0.0035329394
0.07368679 -0.082795046 -0.008892826 -0.026102247 0.0780452 -0.08083334 -0.08439408 0.028544022
0.102050155 -0.079529576 -0.024944441 -0.09318992 -0.13200341 0.028395997 -0.0531366 -0.026796699
0.08729805 0.05418775 -0.07353356 0.038684446 0.06237031 0.035614386 -0.065155655 0.06285481
0.021337135 -0.1305213 0.010451498 0.07429103 -0.030689303 -0.028714705 -0.0024162603 -0.022184828
0.08952722 -0.123882174 -0.08162047 -0.053185407 0.07341698 0.039742272 -0.1196558 -0.09140517
-0.12168724 -0.0941512 0.13270079 -0.16854237 -0.12386566 -0.092435695 0.0072684227 -0.016788509
-0.11618557 -0.18581194 -0.15501662 0.00056587235 -0.027332049 -0.0065200115 -0.12956433 -0.04848128
-0.0040155663 0.044058003 -0.020403055 -0.11570539 -0.116734885 0.01907903 0.0058585517 -0.041482862
-0.001560017 -0.0012227846 -0.13649826 0.008985367 0.016384345 -0.09447293 -0.0023537667 -0.06950672
-0.093254074 -0.0029293625 -0.13531959 0.10280244 0.01231672 -0.03285239 -0.15428384 -0.026376532
-0.081710115 -0.0880334 -0.06368385 -0.16034947 -0.055148307 -0.12370878 -0.12476588 0.033394005
0.0750303 0.034271147 -0.061662458 0.02806259 -0.082193635 -0.14782986 0.0734555 -0.08628057
-0.1023455 -0.09403795 -0.13720627 -0.082642645 -0.14227745 -0.13548496 -0.0067527434 0.07352328

sequential/dense_1/MatMul f4 [10, 128]
00000000: 6bb2 acbd c82a abbe 0f9c fa3c 4c64 073e
00000010: 30bb 4e3d 80f5 debc f414 d4be ad2f ab3d
00000020: 9dda 313e 623b 46be 0b31 febd c9db 713d
00000030: d297 c13d 1eb3 6bbb 9697 8bbc fdde d6bd
00000040: e73f 04be 5883 e43d fa52 26be 49d4 b23d
00000050: f621 bb3c 4911 cdbe ab6b babe 078d ffbd
00000060: e120 08be e471 b63d ca6d 83be 90cd 4abe
00000070: b86b 6fbe aebc ad3d b37d f1bd ba2a 5c3e
00000080: 9480 b4bd 0e03 a9bc 1d80 1b3e 37b6 c4bd
00000090: b57f 573e 0678 423e ea8f a8bc 3562 ac3d
000000a0: b792 c4be 2713 0fbb 8630 6bbd 2f36 07bc
000000b0: 7c44 b3be 1ce2 ff3c b8a0 11bb 2509 303e
000000c0: 504d 64bd 921e 053d 4872 b7be 4225 99be
000000d0: bf1e 913e 952e 95bd 2636 89be a295 423e
000000e0: 691a abbc 7190 863d 9f67 f63d a858 1f3e
000000f0: 9962 49be 99f2 f4bd c03c d5be 5ffd 4fbe
00000100: 11d9 7dbe 615e 503e e4f6 aebc e148 873d
00000110: c15b b03c bb98 143e 9e99 e5bd 24b3 a5be
00000120: 6c62 5ebd 54df 793e 5cbf 23bd e74e 1cba
00000130: 0122 213e 9381 fd3d ad3d 083e e150 e13d
00000140: 68b4 b6be e7e3 46be c2e5 8f3d a69e 223e
00000150: 703d 5ebe 4b72 2b3e 5560 8fbc 86da d03d
00000160: de14 523e f669 09be 7d18 adbe 0a6a 23bb
00000170: 5463 b1be 3746 8ebe 6178 20be b719 1d3c
00000180: 4bd3 debe 9d6b 6dbe 2722 8d3d 724e 333e
00000190: 3e0d bbbc efa4 593a e370 4c3d bd4a fabd
000001a0: ad38 573e 2863 be3d 156c 77bd 2a08 c73c
000001b0: dc88 0b3e 4a5a 753c 913c 32be 93f6 a038
000001c0: e400 a0be a5fc d63d ef03 2f3d ac85 e03d
000001d0: 8fdf 3dbd f77d d4be e4ec 44be ade3 50be
000001e0: a67a efbd ee04 bd3d adbb 41bd 27a2 4cbe
000001f0: 7834 343e 7075 643c ef1c 433c a0bb 493e
00000200: 64f4 1abd ac7d 82be 8895 45be f62b 1dbc
00000210: c845 47bc 16db 063e 910c 863c c722 ecbe
00000220: 8eba a83c 57a1 8c3c d1a0 e13b 5096 3bbd
00000230: cbd8 2dbe d003 9ebe a209 c4bc 99e9 2c3e
00000240: bafd c03d 46af 35be b3c5 31be 3aad ad3a
00000250: 3559 203e c07b 713b d858 af3d a4b0 493e
00000260: 4710 283d f16d d8be a87e 5e3d 626f 2fbe
00000270: eca3 673d 1bda bf3d 7d4a 163e bb2f ca3d
00000280: 5ea0 493d 7ddc 9abd 89c6 833d c3e7 2fbd
00000290: 95f7 80be 99fc 6abe c53c a13c 5fc6 26bd
000002a0: 3a81 233e a9f5 2a3d 42dd acbd 6f79 31bd
000002b0: 483b c53d e5c5 5abe 4ed6 b8be f3fb 2ebe
000002c0: 98f6 c53d 67f4 0cbd b1ba db3d 17e9 593d
000002d0: ee9f 363e 74e7 703c 9c62 b23d 3033 f1be
000002e0: 7e30 e03d e761 56be ebec 683e 9873 9a3d
000002f0: de23 f03d 802c e43d a1a3 f63d 6d44 45bd
00000300: de05 19be 2788 24be c176 11be d4fc c43d
00000310: 883a d8bd 424a 093e 1eaa 98be bd18 4fbe
00000320: b797 1d3e 0986 cdbd 12dc 13be aa72 0a3e
00000330: 5862 3cbe 5622 c63d 4188 483e d281 4c3e
00000340: 6a4b 563e 329f 543c b32d aebe 5409 adbe
00000350: 0cc5 0ebe cfaf 94be a21f b6bd b7c4 e73d
00000360: 0023 ccbd 5b9e b2bd 84c9 bd3d 5861 53be
00000370: 56aa 9dbe 611b 25bd 320c 36bd f3a3 c03b
00000380: b020 3abe 6114 6abd d13b 1abe c2b4 0e3e
00000390: 10ed 343d c900 cb3e db0e 0cbe c1aa d039
000003a0: 8f47 34bd a124 1c3e b106 a63d c46e 513d
000003b0: 75b1 9abd 8b2f 27be bc3e aa3c 30e5 31bd
000003c0: b1e5 f93c 55b4 b7bd 460c fabd b754 c23c
000003d0: eddc 80bd 7c1b 48be d5f8 29be 0c59 96be
000003e0: bf76 44bd 6a04 6d3d 2577 6cbe 19e5 7c3e
000003f0: 0b43 97bc 5640 3cbe a200 063e b686 043e
-0.08432468 -0.33431077 0.030591993 0.13221854 0.050471485 -0.027216673 -0.41422236 0.08358703
0.1736855 -0.1935859 -0.12411698 0.059047494 0.094527856 -0.0035964916 -0.017040055 -0.104917504
-0.12915002 0.11157864 -0.1624259 0.087318964 0.022843342 -0.4005225 -0.3641027 -0.12478071
-0.13293792 0.08908442 -0.256697 -0.19804978 -0.23380935 0.084832534 -0.11791553 0.21500674
-0.08813587 -0.02063134 0.1518559 -0.09605067 0.2104481 0.18991098 -0.020576436 0.08417169
-0.38393185 -0.0021831484 -0.057419322 -0.0082526645 -0.35013187 0.031235747 -0.002222104 0.17190988
-0.055737793 0.032499857 -0.35829377 -0.29911238 0.2834377 -0.072842754 -0.26799124 0.19002393
-0.020886617 0.06570519 0.12031483 0.15561163 -0.19666518 -0.11960334 -0.4164791 -0.20311497
-0.24789836 0.20348503 -0.021357961 0.066056974 0.021528127 0.14511387 -0.11210941 -0.32363236
-0.05429308 0.24401599 -0.039977416 -0.0005962685 0.15735628 0.1237823 0.13304777 0.110017546
-0.35684514 -0.19422875 0.07026245 0.15880832 -0.21703124 0.16742818 -0.01750199 0.1019793
0.20515773 -0.13419327 -0.33807746 -0.002493503 -0.34646094 -0.27787945 -0.15670921 0.00958865
-0.4352058 -0.23185582 0.0689128 0.17510393 -0.022833463 0.000830247 0.049912345 -0.122212864
0.21017714 0.09296256 -0.06040581 0.024295885 0.13626426 0.01497514 -0.17405917 7.6753226e-05
-0.3125068 0.10497407 0.04272836 0.10962996 -0.04635578 -0.41502354 -0.19230992 -0.20399351
-0.11693315 0.09229456 -0.047298122 -0.19983731 0.1759814 0.013944015 0.011908754 0.1970048
-0.037830725 -0.25486505 -0.19295323 -0.009593001 -0.012162633 0.13169512 0.016363414 -0.46120283
0.020596769 0.017166777 0.006885626 -0.045797646 -0.16977231 -0.30862284 -0.023930375 0.16885985
0.094233945 -0.17742643 -0.17360573 0.0013250478 0.1565903 0.0036847442 0.085618675 0.1969629
0.04103115 -0.4227138 0.054320008 -0.17132333 0.056552812 0.09367772 0.14676853 0.09872385
0.049225204 -0.07561586 0.06434352 -0.042945635 -0.2518889 -0.22947921 0.019682297 -0.040716525
0.15967265 0.041738186 -0.08440639 -0.0433287 0.096304476 -0.21364553 -0.36101002 -0.17088298
0.09666175 -0.034412768 0.10728968 0.053200807 0.17834446 0.01470362 0.087102145 -0.47109365
0.10946749 -0.20935784 0.22746627 0.07541579 0.11725591 0.111413 0.120429285 -0.04816096
-0.14943644 -0.16067563 -0.14205457 0.09618536 -0.10558039 0.13407233 -0.2981729 -0.2022428
0.15389906 -0.10035331 -0.14439419 0.13520303 -0.1839689 0.09674518 0.19583227 0.19971398
0.20927206 0.012977408 -0.3401924 -0.3379618 -0.13942355 -0.2904038 -0.08892752 0.11316817
-0.09967613 -0.0872161 0.09266952 -0.20642602 -0.30794019 -0.040309314 -0.044445224 0.0058789193
-0.18176532 -0.05714834 -0.1506188 0.13936141 0.044171393 0.39649037 -0.13677542 0.00039800073
-0.044013556 0.15248348 0.08106745 0.051131025 -0.075533785 -0.1632673 0.020781867 -0.04343146
0.030505033 -0.089699425 -0.12209372 0.023722036 -0.06292138 -0.19541734 -0.16598828 -0.29364812
-0.047964808 0.057865538 -0.23092325 0.24696769 -0.018464586 -0.18383917 0.13086179 0.12942013

sequential/conv2d/Conv2D f4 [8, 5, 5, 1]
00000000: 700c bc3e e550 933e 4469 d13e 555e a83d
00000010: 7392 c13e dbcd fbbd 208a e1bc f198 a03e
00000020: 3a66 843d 1482 cbbd dab7 23bf 741e 7cbe
00000030: ebe8 31be 8e5f 5fbe b19b b5be 61aa 66be
00000040: 3a36 2bbf 76a9 83bf 46ee ffbe 049f 4dbe
00000050: dd29 223d 2cee 5abe 572d 8b3e 77fd 703d
00000060: fe1d 013e f73e 013c e128 143e c911 bd3c
00000070: e0b2 61be 511c 5bbe ddd4 61be 5ba8 65be
00000080: 5a80 e43e d5b0 143e c937 303c 6af7 9e3e
00000090: 1cf6 823e 64f8 0b3e 62ab 0e3f 3894 2a3e
000000a0: 6ce9 d8be 32ca e4bd 1628 44be 388b b63d
000000b0: 5ba2 803e 5614 92be 86fc b6be 1512 cfbe
000000c0: 6962 10bf 469f acbd 277c 91be bf6d 13bf
000000d0: 4ed2 ce3c e8a5 82be 551e 81bd 8888 0abf
000000e0: fd28 883e 9a1c a73e 6afc f53d d93c 6d3e
000000f0: 0349 80be 986d ec3d 9570 f03e d9a5 63be
00000100: 1696 37bf bc7f dc3d 09b2 ec3c 31a8 b43d
00000110: e298 6ebe f3c8 a2be e741 bd3c 1934 e13e
00000120: fcf8 48be 154a d03e c0c7 e63e 5936 bc3e
00000130: 97d1 b1be 7c77 613d 2f59 733e 3068 933e
00000140: 920a f83d e972 48be ebe3 87bc 5dbc d13d
00000150: 168d 92be 3398 9e3e 2daa bb3e b345 61be
00000160: 025e fdbe 8a9c c7be 6961 853b f342 ff3e
00000170: baa2 61be 0c2e 87be adc7 b1bd d29b 8aba
00000180: 257f a53d 0e5b 353e f995 953e 08ac 3abe
00000190: 1ac7 0dbd 4ced 9dbe 2c8a bebe a397 f4be
000001a0: 47db 6b3d 26c6 58be 4687 d0be 4c69 8cbe
000001b0: ff01 a5be 1685 abbd 0ad8 a53e 05a7 cebe
000001c0: 0de9 03be a973 143f 2677 0c3e 4963 c33e
000001d0: 0763 00be 6c26 1a3e 118b 913e e3d2 77bb
000001e0: b4d9 9c3c c6b9 093f bea9 183f 8438 f93d
000001f0: e615 61bd e627 d83c deca 8f3e e207 93bc
00000200: 8fcb bf3e bedc e33d 3202 1a3e 6cd1 a3be
00000210: 3b7a 84be 8fea 443e 6f1d 533e e26f 34bb
00000220: a73b 01bf a498 843c ccdb 8f3e a1d8 97bd
00000230: c1d0 00bf 8597 83be 45e9 9bbe 35be 0b3f
00000240: 7f54 2f3c ef71 ffbe 4a64 a8bd 0394 093e
00000250: b96a 873d 4c54 9bbd 5ca4 273e 0659 213e
00000260: f9df 6d3e cc36 3cbc 2942 c4bd 58c1 923e
00000270: dffb b3bd e922 adbe ec46 c7be f735 a7be
00000280: 3b89 fdbd f25e f0bc 5e0d 883d fd20 543e
00000290: 3530 613e 5d9d dabd 8862 00bd 206c 853e
000002a0: 9d37 c73e 881c 0c3f 6f8b 4e3e af4d 3e3e
000002b0: a510 a3be edfd 6cbe 9a4e ffbe 463c a6ba
000002c0: 4b11 9e3d 6633 c53e 5f2d d93e 6a75 e83d
000002d0: 86ba 843d b2c9 083e fd7e b03d 84df 853e
000002e0: 36e8 4e3e db65 bd3e 437f 23bc 4722 acbe
000002f0: 7fbb 673e 9b6b 6dbc 47fb c6bd 6fe1 083e
00000300: 61b7 12bc 3736 933d 251a 7b3e 208b 44be
00000310: 52c4 5ebe 9bd8 69bd 9069 63be cbc0 99be
0.3672824 0.28772655 0.40900624 0.082211174 0.37807044 -0.12295123 -0.027531683 0.31366685
0.06464811 -0.0993692 -0.6395241 -0.24620992 -0.17374007 -0.21813795 -0.35470346 -0.22525932
-0.6687962 -1.028609 -0.49986476 -0.20080191 0.039590705 -0.21379918 0.2718303 0.058835473
0.12609097 0.007888547 0.14468719 0.02307977 -0.22040892 -0.2139752 -0.22053857 -0.22427504
0.44629174 0.14520581 0.010755488 0.31048137 0.25578392 0.13668972 0.5573026 0.16658103
-0.42365587 -0.11171378 -0.19155917 0.089132726 0.25123867 -0.2853114 -0.35739535 -0.40443483
-0.5640016 -0.084288165 -0.28415033 -0.57589334 0.025246765 -0.255172 -0.063046135 -0.5411458
0.26593772 0.3263901 0.12011035 0.23167743 -0.25055704 0.11544341 0.46960893 -0.22231235
-0.7171339 0.10766551 0.028893488 0.088211425 -0.23300508 -0.31793937 0.023102714 0.4398506
-0.1962623 0.4068152 0.45074272 0.36760214 -0.34730217 0.05504559 0.2376449 0.28790426
0.12111391 -0.19575085 -0.016588172 0.102410056 -0.28623265 0.30975494 0.3665327 -0.21999244
-0.49485785 -0.38986617 0.00407045 0.49855766 -0.22034732 -0.26402318 -0.08680663 -0.0010575003
0.080808915 0.17710516 0.29215983 -0.18229687 -0.034613706 -0.30845106 -0.37214792 -0.4777194
0.057582166 -0.21169338 -0.40728205 -0.27424085 -0.32228085 -0.083749935 0.32391387 -0.403618
-0.1288187 0.57988983 0.13717327 0.38161686 -0.12537776 0.1505372 0.28426412 -0.0037814907
0.019146778 0.5379909 0.59634006 0.121689826 -0.054952525 0.026386213 0.28084463 -0.017948095
0.3745999 0.111260876 0.150399 -0.31995714 -0.25874504 0.19230102 0.20616697 -0.0027532508
-0.5048165 0.016186066 0.2809738 -0.074143656 -0.50318533 -0.25701538 -0.30451408 0.5458711
0.010701298 -0.49891612 -0.082222536 0.13435368 0.066121526 -0.07584438 0.16371292 0.15756616
0.2322997 -0.011487674 -0.095829315 0.28663135 -0.08788275 -0.33815697 -0.38921297 -0.3265836
-0.1237969 -0.029342148 0.066431746 0.20715709 0.21991046 -0.10674546 -0.031343967 0.26059055
0.38909617 0.54731035 0.20170377 0.18584321 -0.31848636 -0.2314374 -0.49864656 -0.0012682758
0.07718142 0.38515776 0.42417428 0.1135052 0.06480889 0.1335819 0.08617971 0.2614709
0.20205769 0.36991772 -0.009979072 -0.33619902 0.22630118 -0.014490987 -0.09715896 0.13367246
-0.008954854 0.07188075 0.24521692 -0.19193697 -0.21754578 -0.057091337 -0.22208238 -0.30029902

sequential/conv2d_1/Conv2D f4 [16, 5, 5, 8]
00000000: 3a66 99bd 4c65 c33d c30a 493e bd88 41be
00000010: 1949 513d 8863 cbbd a14c d23d c2af bc3b
00000020: b478 09bc f11c 963c 600b cf3d 10fa cdbc
00000030: 9de6 e53d 7199 c23d 1318 7b3d 7027 103e
00000040: e02e ebbd c775 9dbd 5d35 90bd de54 a23d
00000050: 1202 c7bd 0dda 43bc 7a24 fd3d 461d 1c3e
00000060: cb65 c63d 7a90 58bb fd9e 33bd a410 9a3d
00000070: 972e 96bd f1bd d63c 07da e9bd 3a94 6c3c
00000080: 68f3 64bd 8153 17bd dd3a cfbd b62d 07be
00000090: 3526 273d 46df 803d 12c4 cfbc bb5e 0e3e
000000a0: 81dc 40be e732 8f3c 39ad 00be 4a01 613d
000000b0: 6523 37bd ff2c 103e 56be 0ebc 9f87 15bd
000000c0: c871 1ebe 4d4a 3fbe faf2 18bd 6b13 333e
000000d0: 57bc e53b 1812 88bc ec21 d83c da47 f73d
000000e0: 58bd a23c 119d 93bd 3428 08bc 7e88 52bc
000000f0: 4879 77be 9e49 25be cf53 743e a3f6 9cbc
00000100: e68f cb39 5aa5 793d 656a 7cbe fc03 613d
00000110: 8751 b2be 8bea 773b 3fe0 043c 43e3 283d
00000120: 795c a03d 7a4d f23d bfd6 b7be 6901 e2bd
00000130: 42b1 94be 2af6 a13d 9174 0fbe 4397 213d
00000140: dada 67be 409d 61be 775c e93d 1490 233d
00000150: 638d d33c ac50 4d3c 7e87 a2bd 0522 863d
00000160: 594b 8dbe 12b3 82be a0a1 8c3d e3a6 073e
00000170: 2998 97be 9f30 20bd 2dcf 3c3c 6537 113e
00000180: 4ec3 593d 51b6 95bd ec9e 35bd 6abe 8b3d
00000190: b75d b5be f0e6 3dbd 5656 933d 70dd d83c
000001a0: 9bf0 3c3e 46db 99bd bb3d 75be d6b5 123e
000001b0: 80a1 193d 94ce 1fbd 7f64 1fbe 9da4 9cbd
000001c0: c6e1 203e 8b5f 743e 009a 65be 04a0 3fbc
000001d0: 43d1 adbd 5956 1dbd 51c8 47bc ad6b a93d
000001e0: fa4b aebe 3931 3cbe c81f 1b3e 2d8f 3c3c
000001f0: 3f10 93be 1077 d4bc 305d c2bc 38e8 f03d
00000200: a726 92be b269 733d 71b7 99bb 151f 303d
00000210: 0e5e a3be 291c 4fbd 4f28 983e a08c 843d
00000220: 02a3 51be 7ff0 953e 015d d8bd 5087 2c3c
00000230: 99e6 56bc 1e97 b1be bf94 493e 7f13 17be
00000240: 9343 3abd a311 7e3e 24ad 7bbc 6c9a d0bd
00000250: 3bdb 733d 8d30 27be 2ddb 713d 2ad3 4cbe
00000260: 8293 933d 6abb 033e f4ed 94bd 05da b23c
00000270: fc2e fdbd 95f8 8abe 8162 febd 676a 57be
00000280: 8e7f b0bd 6b03 f33d c821 563a c436 b5bd
00000290: 26b9 d0be 865b 8e3d 3612 fa3d 1047 003e
000002a0: ba36 103e 69c7 553e 73d9 15be 669a 483d
000002b0: f4ae 50bd 8720 e4bc 340b 5b3d 6fdc 73bd
000002c0: f5e8 43bb 66df d13d 88e2 a83d 5d5d d53d
000002d0: e9a3 e43d c882 d1bd 499b b93c dded 47bd
000002e0: b25c 523e e8d2 383e 1291 0d3d 3f9e 0f3d
000002f0: 5036 bd3c d6cf 38be d932 f4bd 73df b9bd
00000300: e964 983d 7cc1 02bd 423c 8dbd 7566 bb3c
00000310: 152e 7d3d e448 dfbc ed0a 7abd 5276 22be
00000320: 185d 60be 1628 10be 8c85 debd 6ff1 92bd
00000330: 1982 cc3d f5c1 f23c 9d09 96bd 6c7c 16be
00000340: 3a9f 24bc 8d68 f73b 13b5 83bd b28e e8bc
00000350: dd3b 813a e354 30bd ca36 483c 2d0e 0c3e
00000360: 4f35 32be 5c9f 053c 3618 a23d e147 f6bd
00000370: 02ab afbb a2e4 b23d 6ae7 7c3d 6c69 96bd
00000380: f19f 383d 4a98 40bd 86db 93bd 89ca 923b
00000390: 14db 283d 7df7 c33c a2bc e1bd 59df 83bc
000003a0: b7db 6c3c 40c0 b93d 67d0 bbbd ad95 0e3d
000003b0: f02f c9bd ffec eabc d786 1a3b 624e a5bd
000003c0: d069 2bbd 29c9 d2bd 602e 2a3e 2b6b bf3d
000003d0: 502a 143e b633 4fbe d703 413d a5b2 8ebd
000003e0: 6358 20bd f6fa f1bd 0da2 0a3e 0920 e2bd
000003f0: c5d6 d9bb eacf a2bb c166 31bd 5b19 d5bc
-0.07490201 0.09540805 0.19633012 -0.18899818 0.051095102 -0.099310935 0.10268522 0.0057582567
-0.008390594 0.018324347 0.101095915 -0.025143653 0.112256266 0.09501923 0.061302256 0.14077544
-0.1148355 -0.0768848 -0.07041428 0.079263434 -0.09717192 -0.011953843 0.12360473 0.15245542
0.09687384 -0.00330451 -0.043852795 0.07522705 -0.07333105 0.026213618 -0.114185385 0.014439637
-0.055896193 -0.03694487 -0.10118649 -0.13201031 0.04080792 0.06292586 -0.025362048 0.13903324
-0.18834116 0.017480327 -0.12566079 0.05493287 -0.04471149 0.14079665 -0.008712372 -0.03650629
-0.15473092 -0.18680687 -0.037341096 0.17487876 0.0070109772 -0.01661019 0.026383363 0.120742515
0.019865677 -0.072076924 -0.008310366 -0.012849925 -0.24167359 -0.16141364 0.23860095 -0.019160574
0.0003882639 0.060948707 -0.24649961 0.05493544 -0.34827825 0.0037829007 0.008110105 0.04123236
0.07830138 0.11831184 -0.35906026 -0.11035425 -0.29041487 0.0790828 -0.1400931 0.039450895
-0.22642079 -0.22032642 0.113945894 0.039932325 0.025824254 0.012531441 -0.07935999 0.065494575
-0.27596548 -0.25527245 0.06866765 0.13247256 -0.29608276 -0.03910887 0.011524004 0.14181288
0.053164773 -0.07310165 -0.044341013 0.06823428 -0.3542306 -0.046362817 0.07194202 0.026472777
0.18451159 -0.07512526 -0.2394933 0.14327177 0.037507534 -0.039015368 -0.1556568 -0.07648585
0.15711126 0.23864572 -0.22422028 -0.011695866 -0.08487179 -0.038412426 -0.012193755 0.08272491
-0.3404234 -0.18378152 0.15148842 0.011508745 -0.28723332 -0.02593568 -0.023726076 0.11763042
-0.28545114 0.05942697 -0.0046910574 0.042998392 -0.31907696 -0.050563965 0.29718253 0.064721346
-0.20472339 0.29285046 -0.10564614 0.010530308 -0.013116502 -0.34685606 0.19685648 -0.14753531
-0.0454746 0.24811415 -0.015361104 -0.10185704 0.059535246 -0.16327114 0.059046913 -0.20002428
0.07205869 0.12864462 -0.072719485 0.021832475 -0.12362477 -0.27142778 -0.12421132 -0.21036683
-0.08618079 0.11865886 0.0008168486 -0.08848336 -0.40766257 0.069510505 0.12210505 0.12527108
0.14083377 0.2087685 -0.14633732 0.04897537 -0.0509481 -0.027847541 0.05347748 -0.059536394
-0.0029893492 0.10247688 0.082463324 0.10418198 0.11164076 -0.10230023 0.022657054 -0.04881083
0.20543173 0.18049204 0.034562178 0.035063025 0.023097187 -0.18048033 -0.11923761 -0.09075823
0.07441122 -0.031922802 -0.06896259 0.022876004 0.061811525 -0.027256437 -0.061045576 -0.15865448
-0.21910512 -0.14077792 -0.10865316 -0.07174956 0.09985752 0.029633502 -0.07326052 -0.146959
-0.010047728 0.007550305 -0.064310215 -0.028388355 0.000985976 -0.043049704 0.012220094 0.13677283
-0.17403148 0.00815567 0.07914774 -0.120254286 -0.005360962 0.087350145 0.06174413 -0.073443264
0.045074407 -0.047020234 -0.07219605 0.0044797105 0.041224554 0.023921723 -0.11022307 -0.016097711
0.014456681 0.09069872 -0.09170609 0.03481071 -0.098235965 -0.028677462 0.0023578906 -0.08071591
-0.041848958 -0.102922745 0.16619253 0.093466125 0.14469266 -0.2023457 0.047122803 -0.069676675
-0.039146792 -0.11815445 0.1353838 -0.110412665 -0.006647917 -0.004968633 -0.043310884 -0.026013067
